analysis_output_folder/trained_model/TrainedSingleSnake.pth (torch, 17640 bytes, 4 tensors)

network.0.weight f4 [256, 11]
000000 9d 61 39 3c 69 15 a8 bd a6 1a 5a be 36 65 8a 3e
       0.011314777 -0.08207209 -0.21299228 0.27030343
000010 7d 14 a6 3d 91 9c 94 be c1 ec 10 3e e6 e3 1f be
       0.081093766 -0.290257 0.14152814 -0.1561428
000020 a4 50 37 be ba ee 4e bd 08 b1 3f bd b6 1e 6a 3e
       -0.17901856 -0.050520636 -0.04679969 0.22863278
000030 9f e2 ac 3b d8 8f a5 bc b5 3b 39 be 1a 23 8f bb
       0.005276039 -0.020210192 -0.18089183 -0.004368198
000040 d8 97 87 3e 92 6d e1 bd c0 e1 44 be ad 3e 93 be
       0.26483035 -0.11007227 -0.19226742 -0.28758755
000050 b3 f1 49 be 52 b4 1e be b2 7b 61 3d b0 b5 98 3e
       -0.19721107 -0.15498474 0.055049606 0.29826117
000060 b4 84 91 3d 2d 2b 38 be 72 87 14 3e 8f 50 ac 3e
       0.07105389 -0.1798522 0.14504793 0.3365521
000070 05 d3 c7 be ec 4c a7 3e 44 d3 0e 3c a5 e1 3a be
       -0.39028183 0.32675874 0.008717362 -0.18250139
000080 01 8d 04 3f dd a6 44 bd 18 f5 9f be ab 71 aa 3e
       0.51777655 -0.048010696 -0.3124168 0.33289847
000090 8f b7 60 3e b9 d6 99 bc 27 2d 8a 3d be e1 92 3e
       0.21945022 -0.018779146 0.067468934 0.28687853
0000a0 fd 64 89 3d ef 1e 72 3e 3a 17 3e 3e 05 2e ea 3c
       0.06708715 0.23644613 0.18563548 0.028586397
0000b0 4d 72 69 be fd 8e 70 be ed 4d 8a be f2 94 a9 3e
       -0.22797509 -0.23492046 -0.27012578 0.3312145
0000c0 77 60 98 3e 37 ce 4d 3d 25 cb 1f bd 8d b8 51 3c
       0.29761097 0.05024549 -0.039012093 0.012800348
0000d0 84 2f bc 3e c8 f9 c8 bd be 6a ad 3e 8c 94 2b 3d
       0.36755002 -0.09813267 0.338705 0.041889712
0000e0 6b df cc bd bf 92 7e be b3 10 63 3e 75 c5 53 3d
       -0.10003551 -0.24860667 0.22174339 0.05170198
0000f0 8d 40 dc bd cd 46 35 3e a1 0d 88 3e 7f b0 77 3e
       -0.107544996 0.1770279 0.26572898 0.24188422
000100 85 9c c0 3e 7b 97 e0 3e 69 8e 06 be c7 2b 8b 3d
       0.37619415 0.4386557 -0.13140263 0.06795459
000110 93 34 44 3e 3e d4 bd be af 57 93 be 48 19 4c bd
       0.1916068 -0.3707599 -0.28777835 -0.049828798
000120 f9 b7 53 3e f7 c8 ed be 29 d2 de 3d ba cb c2 3e
       0.20675649 -0.46442387 0.108799286 0.38046056
000130 ce b0 4e be bc ad 76 3e 70 e7 0e 3e 0e 1a e4 bd
       -0.20184633 0.24089712 0.13955474 -0.11137782
000140 94 8a 55 3d 25 c6 d7 3d 8f 4e 86 3e ec 63 13 bd
       0.05213411 0.1053584 0.2623181 -0.035983965
000150 22 58 43 3e ba 2c 31 be 4b 53 d9 3e 09 38 ca 3e
       0.19076589 -0.17302218 0.4244636 0.39495876
000160 72 38 82 3e 8b f6 b4 3c 17 71 cb 3d bb e9 0d be
       0.2543369 0.022090217 0.099336796 -0.13858692
000170 72 66 6b 3e 8f d0 48 3e b2 a3 9d 3e 6b 26 28 3e
       0.22988299 0.19610809 0.30788952 0.16420905
000180 2f 8c 4b 3e 14 15 02 be c3 10 a0 3e 32 71 38 3e
       0.19877695 -0.12703353 0.31262788 0.1801193
000190 a6 cd 41 bd 8d 56 bc bd e6 69 76 3e 18 4a 4a bc
       -0.047315262 -0.09196196 0.24063835 -0.012346767
0001a0 0d ab cb 3e 77 4b 78 be db 6e 95 bd 13 a6 6a 3e
       0.3977894 -0.24247538 -0.07296535 0.22914915
0001b0 70 17 78 be cc 46 c1 3e 7a 29 0f be d6 e3 0f 3d
       -0.2422769 0.37749326 -0.13980666 0.03512939
0001c0 b6 b1 bf 3e 15 02 42 be a9 dc 9f 3e 3c de 90 be
       0.3744027 -0.18946107 0.31223038 -0.2829455
0001d0 23 1b bf bb 22 25 86 bb ca 72 d1 be f0 24 6f 3d
       -0.0058320924 -0.004093782 -0.4090789 0.058384836
0001e0 06 98 a8 bd 21 6c 24 3d 0b 4e b6 be f0 f0 b2 3e
       -0.08232121 0.040142182 -0.35606417 0.34949446
0001f0 03 60 75 3e 08 16 e4 be cc 97 99 3d 90 0b 2b be
       0.23962407 -0.44548059 0.07499656 -0.1670363
000200 bd c0 e9 be 5b 84 a4 3e ed 9d 5c be f2 1f 56 3c
       -0.4565486 0.3213223 -0.21544619 0.01306914
000210 ba e2 87 bd 58 90 37 3d b9 5e 15 3e 74 0a 72 3e
       -0.066350415 0.04481539 0.14586915 0.236368
000220 ad 99 a2 be 72 b1 27 3e ac b9 64 3e 3e 75 6d be
       -0.3175787 0.16376284 0.22336453 -0.23189256
000230 36 33 8f be a7 2b a0 3d 84 4c f6 bd ea a0 df 3e
       -0.27968758 0.07820826 -0.12026313 0.43677455
000240 99 e1 ab bd 7d 31 1e 3e b8 4f 4d be 52 b6 30 3e
       -0.08392639 0.15448566 -0.20049942 0.1725705
000250 1a 46 84 3e da 80 80 3e ec a3 bb 3e 1c 04 b2 3e
       0.25834733 0.25098306 0.366485 0.3476876
000260 9d fc ad 3e 28 34 50 3e 00 a6 8e be da fb 2d 3d
       0.3398179 0.20332396 -0.27861023 0.042476512
000270 82 0b 95 3e 6b 36 4f be 47 2b 3e be f6 05 9e be
       0.29110342 -0.20235603 -0.18571196 -0.30863923
000280 1c 74 67 3d ff 7e 1e 3d 2a ec 5d be 13 10 e7 3c
       0.056507215 0.03869533 -0.2167212 0.028205907
000290 21 3d c8 3d fe f7 19 be 80 9f 05 3e b7 3a 41 be
       0.097772844 -0.15036008 0.13049126 -0.18870054
0002a0 43 fb 8b be 56 09 53 3e f1 0b af be 14 34 e8 3d
       -0.27340135 0.2060903 -0.34188798 0.11338058
0002b0 fa 4f e1 bb bb 7b 55 be 85 dc 9d 3e 63 35 f0 bd
       -0.006875989 -0.2084798 0.30832306 -0.11728933
0002c0 ab 71 4b 3e f2 9d 7a be 28 8a 48 be c4 cf 01 bd
       0.1986758 -0.24474314 -0.19583952 -0.03169228
0002d0 10 53 20 3e 62 3f 93 3e 3f d9 97 3d ca 07 66 3e
       0.15656686 0.28759295 0.07414483 0.22463909
0002e0 67 24 43 be fa 97 aa 3e 8b 19 96 bd 5d 51 9f 3d
       -0.19056855 0.33319074 -0.07329091 0.07779191
0002f0 99 ea eb 3c cd 67 9c 39 b7 5b 7b 3e 0d 0a 51 3d
       0.028798388 0.00029831976 0.24546705 0.051034976
000300 19 d9 8c 3e 17 d9 c5 bd 3b f0 b2 3e 7f fe e1 3e
       0.27509382 -0.09660547 0.34948906 0.44139478
000310 f7 99 41 3e f6 2e b1 3e 03 6c f2 3d 75 4c 0e 3e
       0.18906389 0.3460614 0.11837008 0.13896354
000320 c7 69 48 bc e9 91 8c be ef 27 ec 3e e6 bd 71 3e
       -0.0122322505 -0.2745507 0.46124217 0.23607597
000330 e9 14 39 3d 23 0f f4 3e d3 8a 87 be dd a7 5f bd
       0.045185957 0.47667798 -0.26473102 -0.054603446
000340 94 a1 e2 3d 08 4a ec 3c 2d 1b 2a 3d 6e 5b 6c be
       0.11065975 0.028843895 0.041529823 -0.23081753
000350 7a 52 1b be 5f 8f 05 3e 00 a9 ba be 68 b6 d1 3d
       -0.15168181 0.13042973 -0.36457062 0.10239869
000360 c4 90 67 3d 05 e0 67 be c7 9a 85 3e 02 11 a7 be
       0.056534544 -0.2264405 0.26094648 -0.32630163
000370 ce 08 b0 be 9d a3 cc bd 1c 8b 5e 3e 07 ce d9 3d
       -0.34381717 -0.09992144 0.21732754 0.10635
000380 d6 71 55 3d 48 a9 88 be 53 4c da bc 1a e1 88 3e
       0.052110516 -0.2669165 -0.026647722 0.2673424
000390 11 65 0f 3e ee a3 80 3e 4a 99 8f be 5a 8d 03 3d
       0.14003398 0.25125068 -0.28046638 0.032117225
0003a0 f3 7b 98 3e 91 03 b1 3d df d7 a2 3e c2 88 58 3e
       0.29782066 0.08643258 0.31805322 0.21145919
0003b0 a6 c2 d7 bd 93 13 2e be 69 4c b8 3e b3 29 7f 3e
       -0.10535173 -0.16999654 0.35995796 0.2491825
0003c0 35 3f 2d 3e 7c cd d0 3c 4c 64 14 be a2 c9 1c 3e
       0.16918643 0.025488608 -0.14491385 0.15311292
0003d0 2c 5a 09 3e 5a 1b 86 3e a8 6b 89 3e b8 4b ae bd
       0.13413304 0.26192743 0.26839948 -0.08510536
0003e0 12 a8 8e bd d0 02 76 3e 83 2c 8e 3e 56 08 c0 3e
       -0.069656506 0.2402451 0.27768335 0.3750636
0003f0 87 fb c6 3e 72 f9 dc bc bb 06 08 be 0a db 56 3e
       0.38863775 -0.026974414 -0.13283817 0.20981994

network.0.bias f4 [256]
000000 b4 e1 b2 3e f0 14 04 be 72 f4 29 be 53 89 c8 3e
       0.34937823 -0.12898612 -0.16597155 0.3916727
000010 f4 2e 88 3e 80 2b 0d bd 6d 76 ae bd a4 6c 5b 3d
       0.26598322 -0.034465313 -0.08518682 0.053570405
000020 8a 65 5c bd 20 8e 13 be cc 28 69 3d 90 f3 0c 3e
       -0.053807773 -0.14409685 0.056923673 0.13764787
000030 11 79 23 3e f4 a2 1a be 65 13 c5 3c 92 57 95 bd
       0.15964152 -0.15101224 0.0240571 -0.07292093
000040 79 86 e4 3e 24 9c b0 3e da f8 36 be 23 18 5a 3d
       0.44633844 0.34494126 -0.17868367 0.053245675
000050 e1 d5 94 3e 23 c2 e8 3e 7f 49 91 3e 91 9b bc 3e
       0.29069427 0.45460615 0.28376386 0.36837438
000060 ff d1 2f be 54 b3 a5 3e 66 90 c2 3c 23 a4 24 be
       -0.17169951 0.3236338 0.023750495 -0.16078238
000070 ea ee ef 3d f6 18 2a be 2f 46 0e 3e a0 a4 78 3e
       0.11715491 -0.16611084 0.1389396 0.2428155
000080 22 5c a9 3d ba 19 0b be b0 1b 05 3e 25 0c b6 3d
       0.08269526 -0.13584033 0.12998843 0.08889035
000090 ad ae 9e bc 42 9b 7b be 58 b2 c2 3e 82 dd 05 3f
       -0.019370401 -0.24570945 0.3802669 0.5229112
0000a0 03 78 c3 3d 4b 59 81 be 85 96 43 be f3 91 3a 3e
       0.09544375 -0.25263438 -0.19100387 0.18219738
0000b0 58 c2 c2 bd fb 0d 07 3f 7c c3 4f be 87 cd 26 be
       -0.095097244 0.5275571 -0.20289415 -0.1628934
0000c0 74 39 83 be ff d6 63 be 53 a3 46 3e f8 db 47 3e
       -0.2562977 -0.22249983 0.19398241 0.19517505
0000d0 7d 00 85 3e 11 1e ff 3d de c0 46 3e 12 dd c9 3d
       0.25976935 0.124569066 0.1940951 0.09856619
0000e0 20 ae 47 3e a7 a0 28 be 2e dd e5 3e d0 1c 2d be
       0.19500017 -0.16467534 0.4489531 -0.16905522
0000f0 54 08 31 be 27 d3 57 be ac d4 b5 3b d5 2b 8c 3e
       -0.17288333 -0.21076642 0.005549034 0.2737719
000100 42 61 ef bd 55 05 95 be 0c f3 26 bd 2e bd 25 3d
       -0.11688472 -0.2910563 -0.04075913 0.04046362
000110 54 06 b0 bd 22 43 7c 3d 31 db b1 3e 6c 39 dc bd
       -0.08594957 0.06158746 0.34737542 -0.1075314
000120 b2 32 89 3d bf bd 9f 3c 81 b3 4e be ff cb a9 be
       0.066991225 0.019499658 -0.20185663 -0.3316345
000130 8f a6 66 bd 97 69 7c 3e 47 38 1a 3e cc e2 92 3e
       -0.056311186 0.24649654 0.1506053 0.28688657
000140 b7 8c 9a 3e 39 34 52 bc e4 af 8e bd 51 49 54 3e
       0.30185482 -0.012829834 -0.06967142 0.20731093
000150 0f b1 0b 3d 6b 95 20 bd 97 40 89 bd 38 09 b3 bd
       0.034104403 -0.039204996 -0.06701773 -0.08741993
000160 e0 f9 e9 3e 4b 07 60 3e 2b 16 4c be 48 fe 7f 3e
       0.45698452 0.21877782 -0.19930331 0.24999344
000170 54 7c fc bd 35 e1 fe bd 3d 82 c0 3d 51 5e 7a 3d
       -0.12328401 -0.124452986 0.09399841 0.061125103
000180 f8 cb 77 be c8 b8 22 bd 74 b9 92 3e 39 37 95 3d
       -0.24198902 -0.039727002 0.28657115 0.072859235
000190 f8 cc 55 bd c2 f4 53 bd 8f fb be 3e 49 c2 90 bd
       -0.052197427 -0.05174709 0.373013 -0.07068307
0001a0 9a 7d 26 3e 2f 4b 46 be 73 52 1f be 66 ca 15 3e
       0.1625885 -0.19364618 -0.15558796 0.1462799
0001b0 7d d5 96 bc 1c b6 53 bd 46 bc 80 3e 18 c3 cf bb
       -0.018412346 -0.051687345 0.2514364 -0.0063403957
0001c0 2a aa 24 be 7d 91 07 3e c3 a1 4d bd eb 5b e8 bd
       -0.16080537 0.13239093 -0.050203096 -0.11345657
0001d0 52 2e 01 bd bf 86 42 3e dc 6b 82 3d 27 b8 68 3e
       -0.031538315 0.18996714 0.06368229 0.22726499
0001e0 74 a2 9c bd aa e9 ac be 57 84 cf 3e 43 bb c5 bd
       -0.07648173 -0.33772022 0.40530655 -0.09654858
0001f0 ad de 8c 3d d3 19 94 3e 15 4d dd 3e 83 22 59 3e
       0.068784095 0.28925952 0.4322287 0.21204571
000200 16 28 10 3e 2a d8 4f 3e ae bf b8 bc a3 23 d9 3d
       0.14077792 0.20297304 -0.022552337 0.106025
000210 0c 62 66 3e d9 3f c1 bd d0 3b 18 be 21 31 97 3e
       0.2249834 -0.09436006 -0.14866567 0.2952967
000220 13 e0 91 3e 27 94 ea bd f8 ba 7a be 9e 82 ac 3e
       0.28491268 -0.11454039 -0.24485385 0.33693403
000230 83 49 84 be ea 03 4d be 86 11 54 be 2e 56 78 bd
       -0.25837335 -0.20021024 -0.2070981 -0.060629062
000240 89 a2 1f be 92 dd 7b 3e 93 03 20 3e 82 8b 2b be
       -0.15589346 0.24596241 0.15626363 -0.16752437
000250 9b 78 54 be 5c a7 36 3c 4a 78 f1 bd 40 b1 a3 be
       -0.20749132 0.0111483 -0.117905214 -0.3197117
000260 de 81 ca bd 52 d2 12 3e ce 17 1f be 58 bb 73 3e
       -0.098880515 0.14338043 -0.15536425 0.23801935
000270 67 48 01 3e 79 83 7e 3e 55 a7 33 3e 9a 10 e5 bc
       0.12625276 0.2485484 0.17544301 -0.027962018
000280 b8 03 2b bc e2 1c 17 3d 09 78 08 3f b9 87 c1 3d
       -0.010437898 0.03689278 0.5330816 0.09449715
000290 fe 7b a5 be 99 e5 13 3d bf 61 81 be 8e ca 35 be
       -0.3232116 0.036107633 -0.25269887 -0.1775305
0002a0 a5 2f 4c 3e 2e 18 2b 3c 4b 72 e8 bd c6 e0 b4 bd
       0.1994005 0.010442777 -0.11349925 -0.08831935
0002b0 02 de 1d 3e 83 eb 03 be ed fc 6d be 9d 92 42 be
       0.1541672 -0.1288281 -0.23241015 -0.19001241
0002c0 e7 1c b3 bd 88 f6 a3 bc 99 2b 02 3f fc 6a a8 3e
       -0.08745747 -0.020015016 0.50847775 0.32894123
0002d0 e9 38 33 bc 90 f8 26 be a8 86 d0 3d 6b c7 23 3e
       -0.010938861 -0.16305757 0.10181934 0.1599404
0002e0 5b c7 47 3e c1 b9 c6 3d 01 ba 63 3e d9 44 94 3e
       0.19509642 0.097033985 0.22238924 0.28958777
0002f0 32 7a 90 bd 79 35 19 be 85 28 88 be 4b 05 7e 3e
       -0.07054557 -0.14961804 -0.26593414 0.24806707
000300 a5 ba 82 be 7f a9 2d 3e 4b f8 9a be 12 d0 33 be
       -0.25533023 0.16959189 -0.30267558 -0.17559841
000310 67 43 6d bc 38 3d 68 3e 63 1d 81 bd 88 7a ea bd
       -0.014481402 0.22679603 -0.06304433 -0.11449152
000320 20 8d 82 3e b4 cb fa bc 75 bc e2 bd f4 53 58 bd
       0.25498295 -0.030614711 -0.110711016 -0.05281444
000330 b1 ec f8 3e af a1 34 be 2d 83 c7 3e 23 35 86 bd
       0.4861808 -0.17639802 0.38967267 -0.06553104
000340 b9 f0 76 3e 6e 70 ce bb 28 83 0c 3e de d5 af 3d
       0.24115266 -0.0063000238 0.13721907 0.08585714
000350 a7 1a b5 3e c5 d3 96 3e 81 14 ab bd 91 41 cb bd
       0.35371897 0.29458442 -0.0835352 -0.09924615
000360 25 fc 95 3b 7c 49 dc bd 05 b5 51 be 39 b6 12 3d
       0.004577177 -0.107562035 -0.2047921 0.035818312
000370 09 61 15 3e 45 59 a7 bd b9 37 7c 3e 21 15 15 be
       0.14587797 -0.08171324 0.24630632 -0.14558841
000380 88 f7 04 be 0b e2 23 be 87 7f d1 3e a8 51 b2 3e
       -0.1298505 -0.16004197 0.40917608 0.34827924
000390 a1 4f bd 3e a9 ea c5 bd ea 98 ca 3e b9 da 1b 3e
       0.36974815 -0.096638985 0.3956979 0.15220155
0003a0 04 d7 64 3e 74 9f 25 3e d8 15 bf bd d7 59 26 bd
       0.22347647 0.16174108 -0.09330338 -0.04061302
0003b0 f6 34 dc 3e 86 e0 d3 bd 26 86 38 be 1c 86 8b 3c
       0.43009156 -0.10345559 -0.18019924 0.017031722
0003c0 c4 97 21 3e bf ca 03 bd ec 8e 5a 3e 54 24 35 bd
       0.1578055 -0.032175776 0.21343583 -0.0442241
0003d0 4e 53 c5 bd 41 71 01 3f 3a ce a3 bd 15 3f 85 3e
       -0.0963503 0.50563437 -0.07998319 0.2602469
0003e0 05 65 03 3e 2b f1 d3 bd 52 16 c7 3d 41 c0 07 be
       0.12831505 -0.103487335 0.09721054 -0.13256933
0003f0 6e a6 4e 3e dd 8e 03 3e 4d dd ab bd f6 c0 62 bd
       0.20180675 0.12847467 -0.08391819 -0.055359803

network.2.weight f4 [3, 256]
000000 4d a1 aa bd b5 44 e6 bb d4 b7 8e be 6f cb c1 bd
       -0.08331547 -0.0070272335 -0.27874625 -0.0946263
000010 1b d4 ad bd 60 73 26 be 91 95 fc 3b 8e dd f5 bd
       -0.084877215 -0.1625495 0.0077082594 -0.12005149
000020 51 22 17 be 18 b0 92 be 3f b8 85 be b4 35 93 be
       -0.14759184 -0.28649974 -0.2611713 -0.2875191
000030 46 3b c6 3d a1 ad 5d be 8b e7 bb 3d c3 bd 87 be
       0.09679274 -0.21648265 0.09175023 -0.26511964
000040 22 cf a4 bd 70 df 2a be 49 99 cf be a1 48 b7 be
       -0.0804732 -0.16686797 -0.40546635 -0.357976
000050 20 27 d3 bc 8f 66 d0 bd 32 10 92 bd f4 9d d7 bd
       -0.025775492 -0.101758115 -0.07131995 -0.10528174
000060 14 b6 53 be 35 19 c0 bd 6b 4f 84 3e 27 ee 77 be
       -0.20674926 -0.09379808 0.2584184 -0.24211942
000070 d6 87 03 be 32 cc 9b be dd c6 16 bb 1a ab c8 bd
       -0.12844786 -0.30429226 -0.0023006715 -0.0979826
000080 c5 ee 5e be d7 7a 94 3d 29 95 b3 3d f3 49 c2 3e
       -0.21770771 0.07249992 0.087686844 0.37947044
000090 f1 8d 09 3e d9 fc 68 bd b7 ff 20 be 83 3b 7d bd
       0.13433053 -0.05688176 -0.15722547 -0.061824333
0000a0 99 94 1f 3c c4 87 0b be 94 4a 84 bd 5d b8 60 3e
       0.009740018 -0.13626009 -0.06459537 0.21945329
0000b0 38 13 c6 be 81 73 8e bd bc 66 4d 3e 32 be 88 3e
       -0.38686538 -0.06955624 0.20058721 0.26707608
0000c0 0f 48 fa 3d b2 86 b9 bd bd 6f e4 be 0b 50 22 be
       0.12220775 -0.09058894 -0.446165 -0.15850846
0000d0 8f d6 a8 3e 6e 16 18 be bb ac b5 bd eb 65 27 bd
       0.32976195 -0.14852306 -0.08870836 -0.04086868
0000e0 19 42 ca bd be d0 ca be ef 13 a0 bd fa 01 b0 be
       -0.098758884 -0.39612383 -0.07816302 -0.34376508
0000f0 30 22 a5 3d 3e cb 3d be 07 6a a8 be 03 f5 6d 3d
       0.080631614 -0.18534562 -0.32893392 0.05809499
000100 26 51 e0 be 84 7b be be fc 40 56 be c5 83 96 3d
       -0.4381191 -0.3720361 -0.20923227 0.07349352
000110 5e 77 c7 be e6 d4 4a 3e 66 46 bd 3c a6 d4 05 be
       -0.38958257 0.19807777 0.023104858 -0.130694
000120 94 a2 f0 3d 9c 44 ca 3d ec 39 0f bd d0 48 ef bc
       0.11749759 0.098763674 -0.034967348 -0.029209524
000130 85 c1 1d bf aa 5f ce bd c3 a0 51 3c 9b f2 76 bd
       -0.6162341 -0.1007684 0.012794676 -0.06028996
000140 77 47 b9 3b 11 2c 42 3e 20 ef f5 bc aa 1e 20 be
       0.005654271 0.18962122 -0.03002125 -0.15636697
000150 36 93 e3 bd ae be 10 3e 1a ae 30 bc 63 34 11 bf
       -0.11112063 0.14135239 -0.010783697 -0.5672056
000160 d1 a7 8b bd e9 0b b1 bd 3c 60 09 3e 4f 34 d5 3c
       -0.06819118 -0.0864485 0.13415617 0.02602592
000170 62 7d 00 3e 69 c6 87 3e ba e1 2b be 6e cc 30 be
       0.1254783 0.26518562 -0.16785327 -0.17265484
000180 37 1d ae 39 a3 ef 9a be 4f d7 97 bd 94 ef de bc
       0.00033209633 -0.30260953 -0.07414114 -0.02721385
000190 1a ef 70 be b1 ef 4f 3e 9e be b3 bd 2b 5d 4b 3e
       -0.2352871 0.20306279 -0.08776592 0.1985976
0001a0 11 0e 39 3c 84 19 b3 3c 27 22 35 3d d1 d4 94 3c
       0.011294858 0.021862753 0.044222023 0.018167885
0001b0 bd 73 b3 3c 00 ac 23 3e 51 19 e1 bd ad 0c 56 be
       0.021905774 0.15983582 -0.10991157 -0.20903273
0001c0 2e ac 8e 3e 59 fc 9e be 6c be 89 3d 8b 15 ad be
       0.27865738 -0.310519 0.06725773 -0.33805498
0001d0 93 13 b1 bd c6 df b3 bd 65 30 31 bd 1b 7d 31 be
       -0.086463116 -0.08782916 -0.043259043 -0.1733288
0001e0 ff f2 ff bd ff f9 af 3b b4 c4 13 bd c1 a1 15 be
       -0.1249752 0.005370378 -0.036076263 -0.14612485
0001f0 b8 92 ef bd f9 ee 8d bd 51 f0 30 bd ce 71 d1 bd
       -0.11697906 -0.06930346 -0.043197934 -0.10226785
000200 5b d8 65 be c7 6e e2 3d 74 b6 1f be 41 c4 80 bd
       -0.22445814 0.11056285 -0.15596944 -0.062874325
000210 0c 30 e3 bd fb 1e 42 3d 71 62 92 be 31 fe 01 be
       -0.110931486 0.047392827 -0.2859073 -0.12694623
000220 92 08 cd bd e3 ad cf be 59 3f 45 be a2 6c 3c 3d
       -0.100114 -0.40562353 -0.19262446 0.046002038
000230 cc 78 80 bc 0f b4 e0 bd e6 c5 28 3c d9 7a 04 3e
       -0.0156826 -0.109718435 0.010301089 0.12937488
000240 23 27 ce 3d d8 9b 26 be b3 ac 33 be 54 7b 4b 3d
       0.100660585 -0.16270387 -0.17546348 0.04967816
000250 b9 75 5c be d6 4b 2e be f3 a3 d8 bd 50 d6 1a 3d
       -0.21529283 -0.17021117 -0.10578146 0.03780204
000260 1d fb c7 3e 4b 35 6f bd ba 88 1d 3e c6 c7 e8 3c
       0.39058772 -0.058400434 0.15384188 0.028415572
000270 78 8e e9 bd 03 2d e4 bd d8 54 51 3d 45 52 41 3e
       -0.11404127 -0.11141398 0.051106304 0.1887904
000280 f2 fa ca bd c7 ae d6 bd be 70 9a bd 71 02 3a be
       -0.09911145 -0.10482555 -0.07541035 -0.18164994
000290 91 88 8c bd c3 d4 94 be 69 b1 35 3d 5e 29 98 bd
       -0.068619855 -0.29068574 0.044358645 -0.07429765
0002a0 8c 9e f5 bd c0 df 8b 3e 6e 97 78 be 8e c1 24 be
       -0.11993131 0.27319145 -0.24276516 -0.1608946
0002b0 1d 72 42 be 80 d9 b3 bc a8 2d 08 bd cd 87 59 bc
       -0.18988843 -0.021954298 -0.033246666 -0.013277006
0002c0 63 26 ab be ae 18 a6 be 76 2b ce bd ef b4 3d bd
       -0.33427724 -0.32440704 -0.10066883 -0.04631513
0002d0 81 0f 55 be 83 48 b8 be 9f 06 c1 be 12 18 3f 3e
       -0.20806696 -0.35992822 -0.37700364 0.18661526
0002e0 ef 4a 29 3e a1 7a 7b be 88 6a 89 bd 16 63 ae bd
       0.16532491 -0.24558498 -0.06709772 -0.08514993
0002f0 0c 06 99 be 4f b0 66 3e 08 79 22 3d 17 6d 0b bd
       -0.29887426 0.22528194 0.039666206 -0.034039583
000300 1d 80 85 bd cf 29 85 bd b9 e0 de bc e8 96 75 be
       -0.06518576 -0.06502115 -0.027206765 -0.23983347
000310 56 86 df bd 05 ca 9a bb 06 e1 a2 be 13 8a d1 bc
       -0.109142944 -0.0047237896 -0.31812304 -0.025578534
000320 63 d4 a1 bd f9 15 13 be c2 a5 1a be 36 80 41 be
       -0.07901838 -0.1436385 -0.15102294 -0.18896565
000330 19 cc 93 bd a6 70 31 be e4 f4 c0 bd c0 8b 82 be
       -0.07216663 -0.17328128 -0.09421709 -0.25497246
000340 6c bf e8 bc 15 97 a8 bd b6 a4 aa be 70 d0 33 bc
       -0.02841159 -0.082319416 -0.3332879 -0.010974988
000350 48 32 b8 3d 45 8a 23 3d 40 1b 3a bd 2e 49 a4 3e
       0.089939654 0.039926786 -0.045436144 0.32087082
000360 a0 0f 32 3e 4d 5f fd bd f2 4f 5d 3e 59 df b2 bd
       0.17388773 -0.12371693 0.21612528 -0.087340064
000370 e8 b0 91 bd dd 53 20 3e ec 61 d8 bd 6c 45 68 be
       -0.0711382 0.15656991 -0.10565552 -0.22682732
000380 b3 eb cf bd de eb 04 3e 82 fb da bd 86 ce f7 bc
       -0.10152378 0.12980601 -0.106925026 -0.030249845
000390 a1 ab bc bd 55 a4 2e be 16 88 7d bc 87 bf 47 be
       -0.09212423 -0.17054875 -0.01547434 -0.19506656
0003a0 68 48 91 bd c2 bf ba 3d 26 48 81 be f7 fe e2 be
       -0.070938885 0.09118606 -0.25250357 -0.44335148
0003b0 75 97 b0 bc b1 a1 35 be 6c 46 4a be 0b cd 1b be
       -0.021556595 -0.17737462 -0.19753426 -0.15214936
0003c0 ff 66 f3 bd 0d 1b 72 be 4a 79 6b 3e 53 eb db bc
       -0.11884879 -0.23643132 0.22995487 -0.02684561
0003d0 dd 15 46 be 98 d0 0c bd 7c 1f bb be 61 6b 31 bd
       -0.19344278 -0.034378618 -0.36547458 -0.043315295
0003e0 71 a8 62 be fb fd 2f bd aa 37 a6 bd 45 fd f8 3d
       -0.22134568 -0.042966824 -0.08116086 0.12157682
0003f0 c4 76 81 bc c4 0b f9 bd 85 91 c1 3d a1 ac 90 be
       -0.015803702 -0.12160447 0.09451584 -0.28256705

network.2.bias f4 [3]
000000 63 b6 2d bd a5 a1 bb bd 39 a1 d6 bd
       -0.042410266 -0.091616906 -0.104799695
